…
2022-10-20 10:43:47.138796: I tensorflow/core/common_runtime/gpu/gpu_device.cc:1418] Created TensorFlow device (/job:localhost/replica:0/task:0/device:GPU:0 with 18791 MB memory) -> physical GPU (device: 0, name: NVIDIA GeForce RTX 3090, pci bus id: 0000:18:00.0, compute capability: 8.6)
Model: "model"
__________________________________________________________________________________________________
Layer (type)                    Output Shape         Param #     Connected to
==================================================================================================
input_1 (InputLayer)            [(None, 256, 256, 3) 0
__________________________________________________________________________________________________
conv2d (Conv2D)                 (None, 256, 256, 8)  224         input_1[0][0]
__________________________________________________________________________________________________
max_pooling2d (MaxPooling2D)    (None, 128, 128, 8)  0           conv2d[0][0]
__________________________________________________________________________________________________
conv2d_1 (Conv2D)               (None, 128, 128, 16) 1168        max_pooling2d[0][0]
__________________________________________________________________________________________________
max_pooling2d_1 (MaxPooling2D)  (None, 64, 64, 16)   0           conv2d_1[0][0]
__________________________________________________________________________________________________
conv2d_2 (Conv2D)               (None, 64, 64, 64)   9280        max_pooling2d_1[0][0]
__________________________________________________________________________________________________
max_pooling2d_2 (MaxPooling2D)  (None, 32, 32, 64)   0           conv2d_2[0][0]
__________________________________________________________________________________________________
conv2d_3 (Conv2D)               (None, 32, 32, 32)   18464       max_pooling2d_2[0][0]
__________________________________________________________________________________________________
max_pooling2d_3 (MaxPooling2D)  (None, 16, 16, 32)   0           conv2d_3[0][0]
__________________________________________________________________________________________________
conv2d_4 (Conv2D)               (None, 16, 16, 8)    2312        max_pooling2d_3[0][0]
__________________________________________________________________________________________________
max_pooling2d_4 (MaxPooling2D)  (None, 8, 8, 8)      0           conv2d_4[0][0]
__________________________________________________________________________________________________
flatten (Flatten)               (None, 512)          0           max_pooling2d_4[0][0]
__________________________________________________________________________________________________
input_2 (InputLayer)            [(None, 2)]          0
__________________________________________________________________________________________________
input_3 (InputLayer)            [(None, 5)]          0
__________________________________________________________________________________________________
dense (Dense)                   (None, 128)          65664       flatten[0][0]
__________________________________________________________________________________________________
dense_1 (Dense)                 (None, 32)           96          input_2[0][0]
__________________________________________________________________________________________________
dense_2 (Dense)                 (None, 64)           384         input_3[0][0]
__________________________________________________________________________________________________
concatenate (Concatenate)       (None, 224)          0           dense[0][0]
                                                                 dense_1[0][0]
                                                                 dense_2[0][0]
__________________________________________________________________________________________________
dense_3 (Dense)                 (None, 512)          115200      concatenate[0][0]
__________________________________________________________________________________________________
dense_4 (Dense)                 (None, 256)          131328      dense_3[0][0]
__________________________________________________________________________________________________
dense_5 (Dense)                 (None, 2)            514         dense_4[0][0]
==================================================================================================
Total params: 344,634
Trainable params: 344,634
Non-trainable params: 0
__________________________________________________________________________________________________
Model: "model_1"
__________________________________________________________________________________________________
Layer (type)                    Output Shape         Param #     Connected to
==================================================================================================
input_4 (InputLayer)            [(None, 256, 256, 3) 0
__________________________________________________________________________________________________
conv2d_5 (Conv2D)               (None, 256, 256, 8)  224         input_4[0][0]
__________________________________________________________________________________________________
max_pooling2d_5 (MaxPooling2D)  (None, 128, 128, 8)  0           conv2d_5[0][0]
__________________________________________________________________________________________________
conv2d_6 (Conv2D)               (None, 128, 128, 16) 1168        max_pooling2d_5[0][0]
__________________________________________________________________________________________________
max_pooling2d_6 (MaxPooling2D)  (None, 64, 64, 16)   0           conv2d_6[0][0]
__________________________________________________________________________________________________
conv2d_7 (Conv2D)               (None, 64, 64, 64)   9280        max_pooling2d_6[0][0]
__________________________________________________________________________________________________
max_pooling2d_7 (MaxPooling2D)  (None, 32, 32, 64)   0           conv2d_7[0][0]
__________________________________________________________________________________________________
conv2d_8 (Conv2D)               (None, 32, 32, 32)   18464       max_pooling2d_7[0][0]
__________________________________________________________________________________________________
max_pooling2d_8 (MaxPooling2D)  (None, 16, 16, 32)   0           conv2d_8[0][0]
__________________________________________________________________________________________________
conv2d_9 (Conv2D)               (None, 16, 16, 8)    2312        max_pooling2d_8[0][0]
__________________________________________________________________________________________________
max_pooling2d_9 (MaxPooling2D)  (None, 8, 8, 8)      0           conv2d_9[0][0]
__________________________________________________________________________________________________
flatten_1 (Flatten)             (None, 512)          0           max_pooling2d_9[0][0]
__________________________________________________________________________________________________
input_5 (InputLayer)            [(None, 2)]          0
__________________________________________________________________________________________________
input_6 (InputLayer)            [(None, 5)]          0
__________________________________________________________________________________________________
dense_6 (Dense)                 (None, 128)          65664       flatten_1[0][0]
__________________________________________________________________________________________________
dense_7 (Dense)                 (None, 32)           96          input_5[0][0]
__________________________________________________________________________________________________
dense_8 (Dense)                 (None, 64)           384         input_6[0][0]
__________________________________________________________________________________________________
concatenate_1 (Concatenate)     (None, 224)          0           dense_6[0][0]
                                                                 dense_7[0][0]
                                                                 dense_8[0][0]
__________________________________________________________________________________________________
dense_9 (Dense)                 (None, 512)          115200      concatenate_1[0][0]
__________________________________________________________________________________________________
dense_10 (Dense)                (None, 256)          131328      dense_9[0][0]
__________________________________________________________________________________________________
dense_11 (Dense)                (None, 2)            514         dense_10[0][0]
==================================================================================================
Total params: 344,634
Trainable params: 344,634
Non-trainable params: 0
__________________________________________________________________________________________________
------------------------------- load model ----------------------------------
===  reloading world ......  ===
…
